learnt_model/long/model_3tier.tflite (tflite, 148092 bytes, 48 tensors)

dense_9/bias f4 [40]
00000000: fb3c 04bd 196e c5bc f55d b8bc e075 9cbb
00000010: 740a 90bb af86 6fbc 11ad b93d 9ffd 5bbd
00000020: 19a6 2ebc e535 dfbc 8580 adbc 7315 e9bc
00000030: 65ac 84bb 5012 323e 61f5 58bc af10 3fbd
00000040: ea7f f6bc db7f 343e 1994 143d 1371 a43d
00000050: e14b 7dbd bf6a 96bd 3ab1 2f3e 8a60 16bc
00000060: aa89 86bd a18b 4ebd 9c6f 4dbd 6658 ffbc
00000070: f72f 9c3c 150e 15bd 7d45 58bd 973e debc
00000080: 2733 57bd 615d 37bb 7a52 a2bc e108 f7bc
00000090: a1d7 c53d dcfb 9b3d a349 7b3c 0487 7cbd
-0.032284718 -0.02410035 -0.02250574 -0.004774794 -0.0043957774 -0.014619513 0.09066213 -0.05370867
-0.010659718 -0.027247379 -0.021179447 -0.02845261 -0.0040488713 0.17389798 -0.013242097 -0.04664677
-0.030090291 0.17626898 0.03627405 0.0802938 -0.061839942 -0.07344579 0.1715745 -0.00917829
-0.06569226 -0.05042613 -0.050155267 -0.031170081 0.01906584 -0.036390383 -0.052800644 -0.027129455
-0.052539017 -0.0027979242 -0.019814719 -0.030155601 0.096602686 0.07616398 0.015337381 -0.0616522

dense_8/bias f4 [40]
00000000: a299 2b3e 65ee 52bc 71f3 ca3c 4030 4abd
00000010: b9e3 82bc 1f8f 6ebd c7e4 b63c 5454 183c
00000020: 6acc 73bd 83e2 57bd 7481 0c3c aaf0 093e
00000030: 61be 1c3d 79a9 31bd b824 a8bc 54ac 3bbd
00000040: 4906 3d3e 3764 e53c cc9a 99bc baec fbbb
00000050: 4671 39bd 337c d3bc 8db0 b7bd 615e 3c3d
00000060: ee86 063e b86e 37bd e6cf 39bd a27c b7bd
00000070: 88d4 c8ba 4b47 283e c3ba 4cbd c68a a43c
00000080: 3fa0 4e3c c534 54bc 8b12 7eba 947d 98bc
00000090: 9ab4 36bb 8208 43bc 3f33 273e 42bd ef3d
0.16757825 -0.0128742205 0.024774285 -0.04936242 -0.015977727 -0.05824196 0.022325886 0.009297449
-0.059521116 -0.052706253 0.008575786 0.13470712 0.038267497 -0.043374512 -0.020525321 -0.04581864
0.18459429 0.028001888 -0.01875057 -0.007688132 -0.04527404 -0.025816059 -0.08969221 0.045988444
0.13137409 -0.044783324 -0.045364283 -0.08959319 -0.0015322128 0.16433446 -0.049982797 0.020085704
0.012611448 -0.012952034 -0.0009692094 -0.018614568 -0.0027878643 -0.011903884 0.16328143 0.1170602

dense_7/bias f4 [40]
00000000: 9c76 0c3c 6e5a 4abd 1617 8fbd 975c 323e
00000010: 79b2 9c3c 6856 5b3e c6a1 13bd f2b5 4c3c
00000020: 89a6 683c f93b 12bd 8e36 9f3e 33ae 0e3d
00000030: c2b2 1b3d 9dc1 a93c 9d46 9e3c 3b52 8b3b
00000040: ead4 d03d a450 44bd 6014 95bc 0b5c 3a3e
00000050: a573 a03d 72c5 963e 74a5 9bbc 053c cbbd
00000060: 3a8e d43c 0835 5ebd b746 443d b546 123e
00000070: 024c ba3d 3fc6 1a3d 3d40 223d 8dbe 0d3e
00000080: 0852 58bd 598c 4c3d c259 0a3e 185e 14bd
00000090: e4b2 8ebd c411 b63c 7a9a 6abe 270a c93c
0.008573201 -0.049402647 -0.06986825 0.17418133 0.019128071 0.2141968 -0.03604295 0.012494551
0.014199861 -0.035701726 0.3109631 0.034834098 0.038012274 0.020722205 0.01932078 0.004251746
0.1019686 -0.047928467 -0.018198192 0.18199174 0.078345574 0.29447514 -0.018999793 -0.09923557
0.025946725 -0.054249793 0.047919 0.14284785 0.090965286 0.03778672 0.039612044 0.1384222
-0.052812606 0.049938533 0.13510802 -0.036222547 -0.069677144 0.022225268 -0.2291049 0.024540974

dense_6/bias f4 [36]
00000000: cc36 953e 746b 283d 69bd f23c e02a dd39
00000010: 861c 0fbc f83d c1ba 69ad a83c 6e55 a2bc
00000020: 60a4 a7bb e6df d93a 3151 343c 862d 7bbc
00000030: 03af f83e d663 c5bc 002a fdbb e3c8 fcbb
00000040: 18f3 9b3b 6064 8ebb 2be3 0abc 88a5 5c3b
00000050: 85cc 0cba cf04 c83a 29ff aaba e848 863b
00000060: 560d 1a3e 0512 0b3e b19f 92bd 6ec9 e2bb
00000070: 9473 0c3b 9875 ef3b b762 37ba ec5a a4ba
00000080: 70ed 613b 434f 293c bbb8 76bb eb31 ddba
0.2914337 0.0411181 0.029631333 0.0004218435 -0.008734828 -0.00147432 0.0205905 -0.019816127
-0.0051160306 0.0016622513 0.011005686 -0.015330678 0.48571023 -0.024095457 -0.007725954 -0.0077143773
0.0047592036 -0.0043454617 -0.008477013 0.0033668 -0.0005371052 0.0015260222 -0.0013046014 0.0040980466
0.1504415 0.13581093 -0.07159365 -0.006920985 0.0021431195 0.0073077194 -0.00069956057 -0.0012539304
0.00344738 0.010333839 -0.003764673 -0.0016875839

dense_5/bias f4 [40]
00000000: b96b 87bc 590b ad39 fa1a 1ebb 7722 69bd
00000010: 46c7 b1bc 11b2 51bd ab53 0bbd 4c3f 84bd
00000020: 19aa e9bb 55fc 44bc 3dc8 4fbd a4a8 413e
00000030: 182f 1dbd 0d84 b33c 8179 4ebd 4aac f3bc
00000040: e5f3 8ebc 8917 0fbc fb1f c0bc 017e 313e
00000050: 8e49 6b3c 066b 923c 127f 34bc fc95 1d3c
00000060: 4ecb 18bd 8a5e 38bb b9e0 f8bc f6be ccba
00000070: 63f4 20bd bad7 ac3d 933a b639 ba7c f1bc
00000080: aaba 06bd 5166 b03c a8eb a7bc 2fed 203e
00000090: 4f34 a93c 659d 093e ff65 2f3c 796e d8bc
-0.016530858 0.00033005586 -0.0024124966 -0.056917634 -0.021701466 -0.051195208 -0.03401534 -0.064573854
-0.007130873 -0.012023051 -0.05072807 0.18911988 -0.03837499 0.021913553 -0.050408844 -0.02974524
-0.017450282 -0.008733639 -0.02345275 0.17333223 0.0143607985 0.017873298 -0.011016624 0.009618279
-0.03730326 -0.0028132522 -0.030380594 -0.0015620876 -0.039295565 0.08439584 0.00034757386 -0.02947842
-0.03289286 0.021533163 -0.020498112 0.15715478 0.020654825 0.13438947 0.01070547 -0.026419865

dense_4/bias f4 [40]
00000000: 7b91 1bbc 9879 863d e92a ff3c f8dd 803c
00000010: 8e87 3bbd 466f 1abd cdb2 2c3c a46d 61bd
00000020: 85ac bfbc f301 da3c 6a35 853e c201 b0bc
00000030: b1cb 563d 169b b23d 715a 083d 6935 843c
00000040: 655e a93c 9955 363b c95d 503c fe9c 893d
00000050: 8285 90bd 2d47 dcbc 77aa 023e a5a5 3f3d
00000060: 03d8 103d b287 59bc b55b 28bd 2bbb 863e
00000070: b487 58bd 359b 49bb 3cae 4cbd 1ede 293e
00000080: 6909 853e 66b3 3ebd b403 033b b01e 31bd
00000090: ddbf 15bd 3200 933c 25cd 6e3c 054f 1bbc
-0.009495134 0.06566161 0.03114839 0.015730843 -0.045783572 -0.037703775 0.010540676 -0.055036202
-0.023397693 0.026612258 0.26017314 -0.021485213 0.05244035 0.087209865 0.033289377 0.01613875
0.020674894 0.0027822016 0.012717673 0.06719397 -0.070567146 -0.026889408 0.1276034 0.04678883
0.035362255 -0.013276981 -0.041103084 0.26314673 -0.05286379 -0.0030762677 -0.04997085 0.16588637
0.25983742 -0.046557806 0.001999122 -0.043242157 -0.03655993 0.01794443 0.014575277 -0.009479289

dense_3/bias f4 [40]
00000000: 34dc 98bc 0ef9 5b3c 7c71 c43b 3d5b 553c
00000010: e9f7 d93c 0b1d a33d 90fd 4f3d 2afa e93d
00000020: ca4a 9bbb a7ab 8b3e 2323 c2bd 878e 953e
00000030: 7a2c 80bd 3b8f b93c a576 933e 7bf3 393d
00000040: 9850 92bc d334 8e3e d2b3 673d 2731 d13d
00000050: eb24 e73d abf3 7abd 2ab1 253e d291 26bd
00000060: 4821 1c3e a9d4 75bd 3912 26bd 3c66 643d
00000070: 1584 c63c 2f14 683e 98b1 6d3d 77f9 dfbc
00000080: ae4f 6c3c 6a5b 72bd ca6d 9d3d 03b3 863d
00000090: ea3e 0fbc 26d5 a8bc e3eb 893d e734 9b3e
-0.018659689 0.0134260785 0.0059949737 0.013022241 0.02660747 0.07964524 0.050778925 0.11424668
-0.00473914 0.27279398 -0.09479358 0.29210302 -0.06258483 0.022651305 0.28801456 0.045398217
-0.017860696 0.27774677 0.056567974 0.10214453 0.112863384 -0.061267536 0.16180864 -0.04066641
0.15247071 -0.06001726 -0.040544722 0.05576156 0.024232903 0.2266395 0.058030695 -0.027340634
0.014423294 -0.05916921 0.07686956 0.065771125 -0.008743027 -0.02060945 0.06734445 0.303138

dense_22/bias f4 [45]
00000000: 7839 0e3e db0e b33c d811 093c 1c65 023b
00000010: a2ba 95bb 7204 653c e535 f3bb b5cd dc3b
00000020: 85f9 9e3a 6fff a8bb 07b1 1b3b 1437 1a3c
00000030: 73c9 3c3f 8cb4 03be 76fc 113d 300a b03e
00000040: 81a7 b1bc 7897 15bc 68ad 31ba e48b cd3b
00000050: c00c 563b 7c04 c93b fa04 94bb a33d d8bb
00000060: 9584 2e3c 8af3 7a3a 9fcd 5c3a cca4 7fbe
00000070: d2d7 b43e 0dcc f4bb 2d9b 8b3d f84c 2b3d
00000080: 0bc3 febc 4030 ecbb 9ea8 94bb ccb1 473b
00000090: 2a8d 65ba f265 203b 0a12 12bb f7c0 d93b
000000a0: ba3d 703b cc5b 7fbb 3043 933b f14c a5bd
000000b0: 3238 1a3f
0.1388911 0.02185767 0.008366071 0.0019896692 -0.0045693675 0.013978111 -0.007422196 0.0067383894
0.0012128806 -0.005157403 0.002375664 0.009412546 0.7374489 -0.12861842 0.035641156 0.34382772
-0.021686317 -0.009130351 -0.00067778537 0.00627278 0.0032661408 0.006134568 -0.004517195 -0.0065991445
0.010651727 0.00095730333 0.0008422974 -0.24965209 0.35320908 -0.007470614 0.06816707 0.04182145
-0.031098863 -0.0072079003 -0.0045367023 0.0030470965 -0.0008756692 0.0024474827 -0.0022288584 0.0066453177
0.0036657886 -0.0038964627 0.0044940934 -0.08071316 0.60242

dense_21/bias f4 [40]
00000000: 33b0 923c b807 a13c 4bf8 83bc 34f6 b93c
00000010: 2566 78bc 86a3 413b 2754 3cbc fe51 f8bc
00000020: 24c2 0bbd d899 2ebc dbd1 08bd f1d7 8c3c
00000030: 71d3 8c3d 385a c03b 82a9 ad3c 9aff 4fbd
00000040: 1c6b 57bd bd40 f93d 4911 60bc 6618 813d
00000050: b1b6 0b3e 9191 e1bb 3a1c 4abd 70b3 53bd
00000060: bbfe 4abd f2cd 0a3e aba5 b83d f7b3 01ba
00000070: c890 6bbd b56b cbbc 91ac c03d 6838 5e3c
00000080: 0921 943c 65da b33c 6122 843c 376e ad3d
00000090: 300b 8cbc b865 07bd 20cf 43bd 4429 84bc
0.017906284 0.019657 -0.016109606 0.022700407 -0.015161072 0.002954693 -0.011494673 -0.030312534
-0.034120694 -0.010656796 -0.03340326 0.017192813 0.06876267 0.00587013 0.021198992 -0.05078087
-0.05259238 0.12170551 -0.013675996 0.06303482 0.1364391 -0.006883808 -0.049343325 -0.051684797
-0.049559336 0.13555124 0.09015974 -0.00049477763 -0.05751112 -0.024831632 0.094079144 0.013563253
0.018082159 0.021954725 0.016129674 0.084682874 -0.017095178 -0.03305599 -0.04780495 -0.016132958

dense_20/bias f4 [40]
00000000: 6f54 293d 45be 293e 44b4 a53d bee7 283e
00000010: 34f0 4ebd 7318 e6ba aae4 29bc 43f1 e8bc
00000020: f843 13bd 90a6 563b dfd7 f53b bd60 1f3d
00000030: 20c3 ffb7 d3c1 cd3d a8e4 dc3d e731 4bbd
00000040: 9222 3cbd f6dd e33a 76d7 ce3d 306c 0f3d
00000050: 9c82 ecbc 017f 723d e3f9 c93c b283 793c
00000060: a78c b539 9631 1b3d a2a0 0fbd 986a 14bd
00000070: 0e21 09bd 3608 b13c c732 21bd 0a4d 52bd
00000080: a22d dcbc f06d 9e3d 712f 17bd fbd2 6abc
00000090: a2b1 00bd c7b7 ce3c 78e7 1c3e f905 27bd
0.041340288 0.16576488 0.080910236 0.16494653 -0.050522044 -0.0017554894 -0.010369459 -0.028435355
-0.035953492 0.0032753088 0.0075025405 0.038910616 -3.0489231e-05 0.10046735 0.107858 -0.049608137
-0.045931406 0.0017384875 0.1009969 0.035015285 -0.028870873 0.05920315 0.024655288 0.0152291525
0.00034627804 0.037889086 -0.0350653 -0.03623447 -0.03347879 0.02161036 -0.039355066 -0.051343
-0.026877228 0.07735813 -0.036910478 -0.014332528 -0.031419404 0.025234116 0.15322673 -0.04077718

dense_2/bias f4 [40]
00000000: 7489 ccbd 04bf c13d 6d53 d5bc dd46 edbb
00000010: 1680 b23d 68a3 3bbd 41f8 1cbd 46ce c4bc
00000020: 86f3 063e df36 87bd 6bc1 333c 2883 913d
00000030: 5e12 913d 6f61 69bd ae54 c4ba 6130 f7bc
00000040: 725c 033e fe05 28be a18c bcbd 5008 893d
00000050: d0bf 1b3e 8c42 75bd bc47 a7bd f32f c03d
00000060: 58b5 cfbd 2fa5 c4bc daca 91bd d7f1 73bd
00000070: c420 bb3d 1794 1b3e a30f e83d d82a 573c
00000080: d8b5 033e 899b a6bd 5d93 043d cf61 9fbd
00000090: 7001 7fbc e133 da3d b915 edbb d9ee 583d
-0.099871546 0.094602615 -0.026040757 -0.0072411136 0.08715837 -0.045810133 -0.03832269 -0.02402414
0.13178834 -0.06602263 0.010971407 0.07105094 0.070835814 -0.056977686 -0.001497885 -0.030174436
0.12828234 -0.16408536 -0.0920651 0.066910386 0.1520989 -0.059877917 -0.08167979 0.093841456
-0.101420105 -0.024004547 -0.07118769 -0.05955681 0.09137109 0.1519321 0.113311075 0.013132773
0.12862337 -0.08135135 0.0323671 -0.077823274 -0.015564308 0.10654426 -0.0072352556 0.052962158

dense_19/bias f4 [40]
00000000: 2520 643e 720d 923d 1243 a73e 267b e5bc
00000010: 0097 193e b62a 8d3d 95b5 953e 2598 a73d
00000020: 1f52 acbb c1da 6abc 5db4 ce3c e46b 9dbd
00000030: 08e9 283e a964 83bd 8d1d 713c c7ab 8dbb
00000040: 6da3 c53d 8fff 96bc 0187 843c 96ef 653e
00000050: 118c 053e c53b 9e3d 5c9a 573d fd51 d1bc
00000060: 7fd6 a4bc ef12 083d ffef a73e af26 d13c
00000070: b756 1e3e 8aea a43c de4b 64bd 7575 833e
00000080: 2da7 0b3e 4842 0a3e e48b c3bc 2ea7 f9bc
00000090: 5b1f a33b 22ce 293d 188b 0c3e 7029 38bb
0.22277887 0.07131471 0.32668358 -0.028012823 0.14999008 0.06892912 0.292401 0.08183316
-0.005258813 -0.014334382 0.025232488 -0.07686594 0.16495144 -0.06415684 0.014716518 -0.004323456
0.096503116 -0.018432407 0.016177656 0.22454676 0.13041712 0.07726244 0.052637443 -0.02555179
-0.020121811 0.03322118 0.3280029 0.025531141 0.15462767 0.020131368 -0.055736415 0.2567555
0.13637991 0.13501847 -0.023870416 -0.030475225 0.004978103 0.04145635 0.13724935 -0.002810087

dense_18/bias f4 [45]
00000000: a843 0f3e 1c88 e73d e43b ca3d 7744 863b
00000010: 1fba c3ba 029e a0bb f5a0 e73b e5a1 8cbb
00000020: baf3 39bc 0d93 69bb 6e21 b73b 66d4 553a
00000030: b2bd f53e 3539 b9bd bf0c a2bd 1b8b 9f3e
00000040: 3b63 a2bd 291f 8bbc c827 e43b 93f2 f03b
00000050: f359 ef3b 1054 803b f2ec 2b39 9cc6 303b
00000060: c04e 9f3a 70dc f1bb 456e 45bb ae33 dfbd
00000070: 23ee 663e 4b9d b23d f936 033e 74da b43d
00000080: 798f f7bc 5864 35ba 3a23 04bc 337a ee3b
00000090: fb27 d63b 2f1f 20bc 79d6 133b 3ba9 edba
000000a0: 93d2 fc3b c575 deba dbbb 28bd a69d 373d
000000b0: 2fb0 b43e
0.13990653 0.11305258 0.098747045 0.004097517 -0.0014932788 -0.0049016485 0.007068748 -0.0042917603
-0.011349613 -0.0035640628 0.005588702 0.0008156955 0.4799629 -0.090441145 -0.079125874 0.31160817
-0.07929083 -0.016982632 0.00696275 0.007353136 0.007304424 0.003916271 0.000163961 0.002697385
0.0012154207 -0.0073810145 -0.003012554 -0.10898529 0.2255178 0.087214075 0.12813939 0.08830729
-0.03021978 -0.00069195544 -0.008065039 0.007277751 0.0065355278 -0.00977306 0.0022558256 -0.00181321
0.007715532 -0.0016972354 -0.041194778 0.04482808 0.35290667

dense_17/bias f4 [40]
00000000: 2b1e c2bc 37a1 3dbd 1e70 433c 28ea e43b
00000010: 5a76 96bd 1b41 fa3d 782f d53d 10d9 46bd
00000020: f8dc d9bb b145 d1bc 31a3 00bd 8ceb 1cbd
00000030: b120 15bc a5f7 0cba c9b3 2bbd 8f8d 9e3d
00000040: 5a40 13bd 97ff debc ad9c 80bd ddf4 bfbc
00000050: 1792 ff3d 2705 1d3c eb58 123e efd6 423a
00000060: 0f48 fbb9 3f02 08bd c089 a0ba 2edf 24bd
00000070: e9d1 e7bc 10ca 823e b337 0cbd 6a9b 61bb
00000080: 06ed 53bd 7ff9 c6bc 47e9 4ebc 4e81 f83b
00000090: 7b42 283c 72df 7abd efe7 debc ba1f de3d
-0.023696026 -0.046296325 0.011928586 0.0069859214 -0.073467925 0.12219449 0.104094446 -0.04854685
-0.006648656 -0.025545927 -0.03140563 -0.038310573 -0.0091020325 -0.0005377478 -0.041919503 0.07741844
-0.035950042 -0.027221484 -0.062798835 -0.02343219 0.12479036 0.009583748 0.14291732 0.00074325403
-0.00047928139 -0.033205267 -0.0012248084 -0.040251903 -0.028298335 0.25544786 -0.034232806 -0.003442491
-0.051739715 -0.02428889 -0.01262886 0.0075837737 0.010269756 -0.06124825 -0.027210204 0.10845895

dense_16/bias f4 [40]
00000000: 514a 4cbb 8ca3 813b ce2e 2c3d edfd c33d
00000010: 8a21 8cbd ad2d a4bd fddc fc3d 5795 8ebd
00000020: 0272 a1bc f7f3 e43d 8233 f23d bf61 adbb
00000030: ec70 96bc 3864 5fbc 4a44 f5bb 2724 0e3d
00000040: 8b1d 2ebb f3d6 3abc e4a1 eb3c 088f 213e
00000050: 041d d93d 8d12 223e 116a 1d3c 767a c43d
00000060: 1ac5 dc3d ceaa 19bd b244 5abc b1dc c93b
00000070: 1189 d83d 325a 5b3e 28e2 85bc 67de 103e
00000080: a2f4 51bd 29f9 18bd 4993 8d3d 04ab 90bc
00000090: 33dc 753e b949 80bd 169e 9a3d 6615 c73c
-0.0031172226 0.003956264 0.042036824 0.09569917 -0.068423346 -0.080165245 0.12346838 -0.06962078
-0.019707683 0.11179345 0.118262306 -0.0052911933 -0.018364392 -0.013634734 -0.0074849473 0.034702446
-0.0026567902 -0.011403787 0.028763719 0.15777218 0.106012374 0.15827389 0.009607808 0.0959367
0.10779782 -0.037516408 -0.013322042 0.0061603417 0.10573018 0.21421126 -0.016343191 0.1414734
-0.05125869 -0.037346993 0.06912858 -0.017659672 0.2400978 -0.062640615 0.07549684 0.024302196

dense_15/bias f4 [40]
00000000: c32d 1cbd 8355 7f3d 7dd1 1bbd 18d4 9b3d
00000010: bca6 23bc f86e b23c abf1 443c ba94 763e
00000020: 8779 cdbc 9ff4 833e 5344 27bc 7ae4 ecbc
00000030: ee14 443d 6add 92be 13c7 193d a0e0 193e
00000040: 425d 153e 1127 e9bb bb01 35bd 7d6a 303d
00000050: 3f57 b7bc 3885 3e3d 9885 8aba 85b8 4f3e
00000060: ad46 08bd 797f bdbc d54c 943d 6ed4 693d
00000070: fba3 c73d eea0 64bd 51fc afbc 2620 573d
00000080: 1379 90bd fa3d e03d 3e36 e33c 8770 a0bc
00000090: 72b0 75ba 7969 1b3e 0126 8c3c 5be1 413e
-0.03812958 0.06233741 -0.03804158 0.07608813 -0.009988483 0.02178143 0.012020509 0.24080172
-0.025082363 0.2577257 -0.010209161 -0.02891754 0.047871523 -0.2868455 0.037543368 0.15027094
0.14586356 -0.007115253 -0.044191103 0.043070305 -0.02238047 0.046513766 -0.0010568378 0.20285232
-0.033270527 -0.023132073 0.07241217 0.057087354 0.09748074 -0.055817537 -0.021482619 0.052520894
-0.07054343 0.10949321 0.027735826 -0.019584907 -0.00093723007 0.15176953 0.017107965 0.18933623

dense_14/bias f4 [45]
00000000: a886 0c3e 4a43 c23c 6ba4 863c 52a4 a43b
00000010: d877 c5ba f406 05bc 24f0 833b a723 f0bb
00000020: 1a48 02bb 5951 443b 5814 783b 98f4 bfba
00000030: ba77 2e3f 5687 f2bd 541f 003e faa5 c23e
00000040: 94a0 b7bc 2d3a 36bb 3793 a3bb 4953 50bb
00000050: 4fca f03b 26fc c4bb 920f 463b 2474 3dba
00000060: 8461 1b3b f772 debb e4be ea38 90ce 77be
00000070: b3cc 983e 3703 3abd e385 bc3d 4fa3 533d
00000080: 6cfd 19bd f245 423b 8e3d 6f3c 069b 33bc
00000090: 2b8a 083c 8394 06bc 86c2 c5bb 6f98 463b
000000a0: b15f 45bc 2039 fa3a 1783 dc3d 3d61 6ebd
000000b0: 56c6 fd3e
0.13723242 0.023713727 0.016435822 0.0050244713 -0.0015065623 -0.008119334 0.0040264297 -0.007328469
-0.0019879402 0.0029955714 0.0037853923 -0.0014645038 0.6815144 -0.118422195 0.1251195 0.38017255
-0.022415437 -0.0027805672 -0.0049919146 -0.0031787923 0.007348336 -0.0060115037 0.0030221683 -0.0007227084
0.0023709247 -0.006788607 0.00011193546 -0.24199891 0.29843673 -0.045413222 0.09205224 0.051669415
-0.037595198 0.0029643741 0.014602078 -0.010962253 0.008333723 -0.008214119 -0.006035152 0.003030326
-0.01204674 0.0019090511 0.10767191 -0.058198202 0.4956538

dense_13/bias f4 [40]
00000000: ed0b 67bb 3d4a 35bd 24a9 21bc 18fb 0ebb
00000010: 7f5e 993b bc3b 543e fbe4 703d efb8 cbbc
00000020: b4d5 b8bc 5b00 6b3d 58fd 2bbc bd83 993c
00000030: 22c9 ddbc 0554 27bd b038 adbc 9949 663e
00000040: 9b83 71bd 6c27 36bc ecde 85bd c5b7 1ebc
00000050: ba7c 9f3c 90f0 e4b9 e550 68ba 8fdb d6bc
00000060: c5d5 77bd dfc2 1bbc ee77 393d 0a08 143d
00000070: 6f24 f93b a736 acba ed10 7dbb fa1e 02bd
00000080: bc0e f93b 02c1 8fbb cb67 7fbc 56df 583c
00000090: ac58 b3bb d20b 34bd 8746 35bd faa8 5c3c
-0.003525491 -0.044260252 -0.009866986 -0.0021817144 0.0046804543 0.20725912 0.058812123 -0.024868457
-0.02256284 0.057373386 -0.010497414 0.018739576 -0.027073447 -0.04085161 -0.021145195 0.22489013
-0.0589634 -0.011117797 -0.065366596 -0.009687369 0.019468654 -0.00043666782 -0.0008862152 -0.02622774
-0.0605066 -0.00950691 0.04528039 0.03614048 0.00760322 -0.0013138846 -0.0038614825 -0.031767823
0.0076006334 -0.004387022 -0.015588711 0.013236841 -0.005473217 -0.043956585 -0.044256713 0.0134680215

dense_12/bias f4 [40]
00000000: f3e1 0bbc b880 a7bb 2860 d639 1e11 e8bb
00000010: 14a2 31bd 1ad5 6d3e f5ff 4bbc 9b6b 4d3d
00000020: a6b4 f93d 7f6f 9a3d b93f 62bc 9845 0dbc
00000030: d0e2 d63b b043 793d f115 41bc fb31 e13d
00000040: 88e3 32bc 564b 85bd 54c4 b43b f848 0cbd
00000050: 47ed 60bc d45b 6c3a 6c3c 143c 25cc 3b3d
00000060: a7d1 dd3d 8740 533d 8415 94bc d291 453d
00000070: 2114 243c 1aa3 dfba d032 1abd 5730 d2bb
00000080: 23aa 73bd a058 bbbc 4719 103d 041e 67bd
00000090: b564 a53c 5d33 a03d 0c88 283d 5388 3d3d
-0.008537757 -0.00511178 0.00040888903 -0.0070821187 -0.04336746 0.23225823 -0.012451162 0.05015145
0.12192659 0.075407974 -0.013809138 -0.0086225495 0.0065578 0.060855567 -0.011785016 0.10995861
-0.0109185055 -0.0650851 0.005516568 -0.034249276 -0.013728446 0.0009016369 0.009047609 0.045848984
0.10831004 0.05157521 -0.018076666 0.04823477 0.010014565 -0.0017062158 -0.037646115 -0.006414454
-0.059488427 -0.022869408 0.035180356 -0.05642511 0.020189622 0.07822297 0.04114537 0.046272587

dense_11/bias f4 [40]
00000000: ce18 ac3e ff89 43bd dd81 0d3c e03a 0e3e
00000010: 54a2 123e 148d 073d 0524 c5bc 77a8 9d3d
00000020: 906b 033d e571 1abc c685 4d3d 1a84 a1bd
00000030: 70f1 723e c6fa 00bd c64a f73c 6fd6 c43d
00000040: 2e2a 43bd ed1b ea3d a185 813e 0509 9d3d
00000050: 7ac3 4fbd 2de0 513e e587 bf3c 7490 693e
00000060: 6ff3 5f3e 5ff2 be3d 7664 9d3d 7104 053c
00000070: 45b5 26bc b02f e9b9 6ac5 6c3e bf09 c93d
00000080: 0770 933d 85ff a53d 6a62 933d 4cec 8f3d
00000090: c732 0f3e 9740 eb3c 8435 a03d cf04 99bd
0.33612674 -0.047739025 0.008636919 0.13889647 0.14319736 0.033093527 -0.024065027 0.07698148
0.032085 -0.009426569 0.050176404 -0.078865245 0.23724914 -0.031489156 0.030187022 0.096112125
-0.047647648 0.11431108 0.25297263 0.07667736 -0.05072353 0.20495673 0.02338023 0.2280901
0.21870206 0.09323572 0.07685177 0.008118735 -0.010175054 -0.00044476753 0.23122182 0.09816312
0.07199102 0.08105377 0.07196505 0.07027492 0.13984214 0.028717322 0.07822707 -0.0747162

dense_10/bias f4 [45]
00000000: 9c9c 293e f486 1a3e faab d93d b8fe 383c
00000010: 0685 76bc df27 3a3c da10 4a3c 6419 0fbc
00000020: d5bc 2fbb 6cfe df3a 7be4 3b3c 0f1b 9eb9
00000030: d3d6 c23e c4b1 793c b17e 02bd 4be7 b23e
00000040: 33d2 dbbd 9535 47bd 3680 f3bb f4b8 2a3c
00000050: 1429 333a af86 84bb ca16 5eba 80d6 b5b8
00000060: e1b9 8f3b 1a81 a5bb edb4 563b 686d a3bc
00000070: 74e8 803e 4312 053d 929f 173e c3eb 163e
00000080: 2482 bdbd 1e9e 2b3c ee4b 0ebb 6dfc edbb
00000090: 8f04 58bc 0381 443c 0c67 5db9 033d 97bb
000000a0: 322e 2a3c b5c5 e5bb 164c 9e3b b252 573d
000000b0: 1e49 9a3e
0.16563648 0.15090543 0.10628505 0.011291198 -0.015046364 0.011362045 0.012333119 -0.008734081
-0.0026815434 0.0017089373 0.011468048 -0.0003015627 0.38054523 0.0152401365 -0.031859104 0.34942088
-0.10733452 -0.048635084 -0.0074310554 0.010420073 0.0006834429 -0.004044376 -0.0008472024 -8.670706e-05
0.004386172 -0.0050507905 0.0032761649 -0.01994963 0.25177348 0.03248812 0.14806965 0.14738373
-0.09253338 0.01047471 -0.0021712738 -0.0072627575 -0.013184681 0.011993649 -0.0002111459 -0.0046154275
0.01038699 -0.007012094 0.0048308475 0.0525691 0.3013391

dense_1/bias f4 [40]
00000000: 6ba5 12bd 0005 84bd e27c 48bd 6cc8 c73b
00000010: 0091 8abd 92a9 84bd 85b5 52bd 0dc6 35bd
00000020: b1d1 b53d af7a f63d 107a e1bc b2fb 1bbd
00000030: 32c0 0d3d f2ec 44bd a9c1 403d 3b50 96bc
00000040: 0c16 783c ef48 a7bd dd28 833c 176d ffbc
00000050: fb5f 09bd 8d4f f73d 03a6 bc3d 1eca 5cbd
00000060: 0a1f 2bbd 88da 973d 18a5 8cbc e2fb fbbc
00000070: 3551 6dbd a963 afbc 7634 aabd c22a 09bc
00000080: 577f 13bc 4756 563c d19e a13b 2201 e9bb
00000090: 8a16 763d 0b50 23bd 3e61 8dbd 55a6 97ba
-0.035802286 -0.06446266 -0.048947223 0.00609689 -0.06765938 -0.064776555 -0.05144264 -0.04437833
0.08877886 0.12035119 -0.027524024 -0.038081832 0.03460712 -0.04807753 0.04705969 -0.018348804
0.015141975 -0.08168208 0.016010696 -0.031179948 -0.0335388 0.1207572 0.09211352 -0.05390369
-0.041777648 0.074147284 -0.017168567 -0.030759756 -0.057938773 -0.021409826 -0.083107874 -0.008372011
-0.009002528 0.013082094 0.0049322625 -0.0071107307 0.06008009 -0.039871257 -0.06903313 -0.0011569957

dense/bias f4 [40]
00000000: d398 c6bd a0f1 69bc c10e 00be 3e28 353a
00000010: 05a0 cc3b 613f 1b3e 4a9f 373d 8620 0d3d
00000020: 0b9b 313d 74fb 1cbd 9024 493d 65bd 05be
00000030: c304 86bc a7b1 4abb 48e8 95bc 58ab 2d3e
00000040: d25c f7bd cf2d f43d 5f76 14be b714 c7bc
00000050: 8a38 8d3d 7696 273d 23a3 3bbc eb64 923d
00000060: fb99 6cbd a514 df3b d163 943d 2402 d6bc
00000070: e239 293e 9212 a93c 4dce 033e 1fb0 91bd
00000080: c552 bd3d 6104 7a3d 948a 57bc 4982 94bd
00000090: 2a53 12bd b5a3 ab3b 5efc 1e3d 7ac7 f63c
-0.09697118 -0.014278799 -0.12505628 0.00069105986 0.0062446618 0.15160896 0.044829644 0.034454845
0.04336075 -0.038325742 0.049107134 -0.1306053 -0.016359692 -0.0030928643 -0.018299237 0.16959894
-0.12078251 0.119228 -0.1449828 -0.02430187 0.068955496 0.040914975 -0.011452469 0.07148155
-0.057764035 0.006807881 0.07245601 -0.026124068 0.16525987 0.020638738 0.12871666 -0.071136706
0.09244303 0.061039332 -0.013155598 -0.072514124 -0.035723843 0.0052380213 0.038814895 0.030124415

bias/bias f4 [15]
00000000: cafd 723d 70d0 63bc c36f dbbd f4c1 5d3e
00000010: a65b 72bd db2a b9bd 6bf7 1a3e 4489 bdbd
00000020: b142 bdbd a66e 543e 04d9 f2bd 12a3 01bd
00000030: 2592 203e 8cd3 30bc 379f 793b
0.059324063 -0.013904676 -0.10714676 0.21656018 -0.059169434 -0.09041377 0.15133445 -0.09254697
-0.09241236 0.20745334 -0.11857799 -0.031649657 0.1568075 -0.010792624 0.0038089284

model/dense_11/MatMul f4 [40, 15]
00000000: f655 a03d 4294 9f3b 535f 073e 2496 853a
00000010: 667b e13d f868 9abe 6fad f6bb 8f29 0cbb
00000020: 26b0 183c 9789 25bc ae38 543b 3619 0e3c
00000030: fed8 64bc 19a0 d53a 5404 143c 8f2b 38b8
00000040: 6188 8038 b2c3 1137 be65 86b6 803a 4035
00000050: 7f56 7f38 ae31 5ab8 4a8d 2f38 6671 49b8
00000060: 4765 fdb8 6831 32b8 1c23 9db8 afe7 c238
00000070: 84c3 9738 58de b237 ea5e bb38 1a24 23b8
00000080: c6c7 2bb8 a775 8638 7ab0 b5b8 d2a9 cd38
00000090: 7cd0 92b5 521b 3bb7 4b42 e038 e415 13b7
000000a0: 8872 8f37 02d6 dab7 c06d bb37 3ab3 5238
000000b0: 6079 0bb5 509e 3938 f83c 2a38 c00e d238
000000c0: 490c dcb7 2e36 8e37 5791 70b7 b6ae bd38
000000d0: a0ab d4b8 6411 08b8 f7a6 1ab9 da43 fab7
000000e0: 2f58 16b8 d38c 70b8 54bd 8db8 1611 5bb7
000000f0: bc89 4eb8 3589 063a 885a 98b9 0cd2 413a
00000100: 1adf 1eba da8e 55bd e403 8739 9d73 1aba
00000110: 4bdb 01ba 94c0 2437 76bd 1639 cf4c 8139
00000120: 60f1 113a 599f 9fb9 8c30 bb39 4a36 b937
00000130: cea4 9d37 bbcb 8c38 0041 a637 d462 3938
00000140: c013 4db6 effa 9638 5c8c a838 ea1b 16b8
00000150: 5aea 10b8 8165 11b8 8378 96b8 105f 9c36
00000160: 1c15 0939 718b 2db9 b05f a938 ee4d 3737
00000170: 8ab5 b8b8 50da 9f38 3e17 01b7 cb60 83b7
00000180: 2c63 5eb7 0012 5c38 193a e1b8 c297 82b8
00000190: a4ff 83b7 d402 11b7 9807 a0b8 548e bf37
000001a0: 6160 6938 da8f aa3c 6576 a7b7 7a97 2bb8
000001b0: c085 0839 6ee1 de36 ec66 24b8 5c89 bcb7
000001c0: a4e1 15b7 7abc 43b8 d7d0 f037 298e 7c38
000001d0: d501 bcb8 49d2 37b8 7248 1cb8 dca0 c738
000001e0: 0cd1 1537 e853 45b7 8045 0236 77e2 f8b7
000001f0: 8cd4 b336 6e44 38b8 bc3a 8337 d2ba 9ab7
00000200: 9826 48b7 fa8b 3638 021d 8938 4c55 5eb7
00000210: e479 8ab8 dcb9 2cb7 c7d3 c3b7 5060 6139
00000220: cc68 f0b8 d822 4ab7 2011 9ab6 8cde 2838
00000230: 14a6 a337 09a8 8eb8 1818 b237 3cc8 4a38
00000240: 8010 5034 61ad 63b7 4ecf b9b7 2415 0d37
00000250: 7e87 a137 e468 6138 5274 da37 ec71 e7b7
00000260: 6433 0539 3c63 cab7 4f5d 49b8 301e 1e37
00000270: 8851 8ab8 b0ab b237 a17f 2538 d137 1738
00000280: e096 ef37 90ad 36b7 ec1e 9638 b211 2337
00000290: fc42 f1b7 1aff 0cb9 3f08 e5b7 9cf2 d8b8
000002a0: b4cb 0e39 2a0a 6e37 161e 83b8 a507 5038
000002b0: 571d 2039 a6c7 5c38 f077 1138 24eb 03b9
000002c0: 60e2 1036 dcde a2b7 d4b2 db37 614c efb8
000002d0: 31f3 703c a832 a23a 6522 0abb 808d 7038
000002e0: 3bf8 c7bb c2a0 b3bc 6e0b 3ebb 2768 72ba
000002f0: 131b 173b e0d4 2bbb 2850 d239 e7f5 393a
00000300: 1d1b 0cbb b3b6 6c3a 7881 ceb9 8942 1b39
00000310: bd46 0838 883f f6b7 5ebf 2038 3001 b6b6
00000320: 20ed f6b6 e6c7 0d38 f5b0 cbb7 94fe 9337
00000330: 418d e438 1c11 1db7 05dc 4e38 74ea 8538
00000340: 081a bb38 96cd 9738 b586 cd38 7c15 13b8
00000350: 798c 29b8 fcf2 8238 4254 49b7 9840 0d38
00000360: 808e 18b8 cb9b 3538 17df 6538 7407 12b7
00000370: e838 e2b8 0b02 5ab8 3e24 1138 3a14 82b8
00000380: 9850 53b7 e0b0 e737 c661 87b8 1594 d938
00000390: ac6e 16b7 744e 32b8 7bc1 b438 c21c a7b8
000003a0: 2599 cbb8 431f 9c38 c2ea ca37 e807 08b7
000003b0: 021e 1339 a3a3 efb7 40bd 6ab7 7229 cbb8
000003c0: 9455 3c38 3ac3 d637 acf1 deb6 16a2 bf38
000003d0: f2d9 2fb8 44a8 4a38 0e0b 3238 320d f637
000003e0: b0f6 8837 7e79 7237 d283 f7b7 e5a9 9db8
000003f0: c2e0 6ab8 d147 0538 c297 8838 78d6 84b7
0.07828896 0.0048699686 0.13219957 0.001019184 0.110098645 -0.3015821 -0.007527999 -0.0021387076
0.009319341 -0.010103605 0.0032382417 0.008673003 -0.013967751 0.0016298323 0.009034235 -4.3909586e-05
6.128918e-05 8.688237e-06 -4.0053555e-06 7.16107e-07 6.0877293e-05 -5.2021518e-05 4.1854837e-05 -4.8027745e-05
-0.000120828445 -4.248452e-05 -7.492883e-05 9.293795e-05 7.236659e-05 2.132279e-05 8.934534e-05 -3.889585e-05
-4.095563e-05 6.4115324e-05 -8.663624e-05 9.806793e-05 -1.0938525e-06 -1.115243e-05 0.000106935004 -8.76698e-06
1.7100261e-05 -2.608728e-05 2.2343243e-05 5.023482e-05 -5.195816e-07 4.4254877e-05 4.058794e-05 0.00010016328
-2.6231764e-05 1.6952948e-05 -1.4338954e-05 9.044765e-05 -0.000101409154 -3.2441123e-05 -0.00014748784 -2.9833918e-05
-3.5844914e-05 -5.735161e-05 -6.758669e-05 -1.3057395e-05 -4.9242502e-05 0.000513214 -0.0002905915 0.0007393665
-0.00060604664 -0.052138187 0.00025752105 -0.00058918615 -0.00049536367 9.82e-06 0.00014375694 0.00024662024
0.0005567279 -0.00030445567 0.0003570359 2.2078999e-05 1.8792602e-05 6.713668e-05 1.981901e-05 4.4199478e-05
-3.0558876e-06 7.1992974e-05 8.037008e-05 -3.5788784e-05 -3.4550532e-05 -3.4665227e-05 -7.1750044e-05 4.660229e-06
0.00013073202 -0.00016550512 8.076371e-05 1.0925794e-05 -8.807618e-05 7.622375e-05 -7.694411e-06 -1.566149e-05
-1.3255321e-05 5.246885e-05 -0.000107396576 -6.22715e-05 -1.5735459e-05 -8.643332e-06 -7.630809e-05 2.2835251e-05
5.564129e-05 0.020820547 -1.9963083e-05 -4.091065e-05 0.00013019796 6.642359e-06 -3.91965e-05 -2.247531e-05
-8.933628e-06 -4.6667155e-05 2.8707478e-05 6.021388e-05 -8.96488e-05 -4.3826443e-05 -3.726077e-05 9.519022e-05
8.929765e-06 -1.1761651e-05 1.9411964e-06 -2.966936e-05 5.3593594e-06 -4.393275e-05 1.5643767e-05 -1.8445226e-05
-1.1929915e-05 4.3522545e-05 6.538072e-05 -1.3252091e-05 -6.603057e-05 -1.0295273e-05 -2.3344428e-05 0.00021493551
-0.00011463612 -1.2048251e-05 -4.5915513e-06 4.0261584e-05 1.950845e-05 -6.8023866e-05 2.1230473e-05 4.8347036e-05
1.9377512e-07 -1.3570622e-05 -2.2150252e-05 8.409177e-06 1.9255789e-05 5.3741867e-05 2.6041791e-05 -2.7590395e-05
0.00012703013 -2.4126486e-05 -4.8009035e-05 9.424562e-06 -6.595539e-05 2.1299202e-05 3.945793e-05 3.605319e-05
2.8561277e-05 -1.0888456e-05 7.158317e-05 9.719677e-06 -2.876063e-05 -0.00013446473 -2.7302767e-05 -0.00010344872
0.0001361806 1.4188272e-05 -6.252171e-05 4.9598184e-05 0.00015269719 5.2638024e-05 3.4682394e-05 -0.0001258073
2.158944e-06 -1.9415682e-05 2.6190108e-05 -0.00011410635 0.014706419 0.0012374716 -0.002107763 5.735224e-05
-0.0061025894 -0.021927241 -0.0028998512 -0.00092470873 0.002305691 -0.0026219413 0.00040114042 0.0007093832
-0.0021378465 0.000902991 -0.00039387844 0.00014806738 3.2490807e-05 -2.935507e-05 3.8325197e-05 -5.424161e-06
-7.3589763e-06 3.380319e-05 -2.4281888e-05 1.7642313e-05 0.00010898198 -9.361913e-06 4.9319136e-05 6.3856045e-05
8.9217036e-05 7.2385345e-05 9.800253e-05 -3.506754e-05 -4.0423565e-05 6.2441424e-05 -1.2000151e-05 3.3677177e-05
-3.6372337e-05 4.3298856e-05 5.4805623e-05 -8.704013e-06 -0.000107871194 -5.1977153e-05 3.4604447e-05 -6.2026505e-05
-1.2595345e-05 2.761971e-05 -6.455513e-05 0.00010374949 -8.9664645e-06 -4.2511572e-05 8.6191074e-05 -7.968537e-05
-9.70832e-05 7.4444826e-05 2.4189594e-05 -8.1080725e-06 0.00014030191 -2.856722e-05 -1.399155e-05 -9.687514e-05
4.4902394e-05 2.5601697e-05 -6.64425e-06 9.1377806e-05 -4.192623e-05 4.8317263e-05 4.2448803e-05 2.933163e-05
1.6327336e-05 1.4452611e-05 -2.9506078e-05 -7.517989e-05 -5.599927e-05 3.1776555e-05 6.5132524e-05 -1.5835496e-05

model/dense_12/MatMul f4 [40, 40]
00000000: 65ab 12b9 2b84 e138 c8a2 7b39 a94d 9ab7
00000010: 17d3 c2b8 d04b 2db7 de14 35b8 4151 91b9
00000020: 2bf7 f636 c081 4b38 e67c 1838 b29b 10b9
00000030: c043 25b6 9829 b537 8d19 8237 6e5c 9439
00000040: 64f6 9ab9 d08b 2437 210c ffb8 d849 7eb8
00000050: 12f4 a738 e8cc b1b7 50d7 0838 2845 88b6
00000060: 8f0c f338 3041 7437 edf3 e638 a880 1bb9
00000070: c4fc a637 da3a dcb8 3c19 ca38 1057 4838
00000080: b139 4439 2359 31b7 004b d1b5 2f3a 7bb9
00000090: c06d 2335 4799 8039 cf80 1f38 c2a4 7039
000000a0: e602 2c38 5069 0db7 9d91 e1b8 5489 5537
000000b0: b914 e238 406a 1037 9c98 c5b8 6c77 76b7
000000c0: 9aaf 5638 4d16 e1b8 8a77 2bb9 c018 bb37
000000d0: 020e b538 e220 afb7 8055 e9b7 8036 6438
000000e0: c3f5 7bb8 a4bf 0139 1e22 8fb8 6d83 f3b7
000000f0: daa2 3cb8 00ae aeb6 a55a c538 d0af 0eb8
00000100: 6246 86b9 246f 81b8 50e6 01b9 fe36 dd38
00000110: aa1d d3b7 0294 c7b8 666d 8238 81d1 22b9
00000120: 33b5 73b9 9e5d 30b9 323c 8c38 c816 d136
00000130: 6eb9 46b9 acd3 b4b7 4462 8eb7 3e5b a938
00000140: dc05 a638 6ce5 cdb8 731e ec38 d2b3 bdb8
00000150: 1c4b c837 480c 1238 20e3 6338 edbc 31b9
00000160: 4839 3fb8 778f 88b8 f891 1b37 d2d9 abb9
00000170: 9049 1938 45ab 1439 3836 af37 17b7 f838
00000180: 6fc8 f1b8 4a68 cf37 4533 e5b8 dc26 9c39
00000190: 4dcf 7338 d45f 9b38 4ce2 0fb8 200d d1b7
000001a0: e441 0a38 3069 2038 1276 9937 d809 3937
000001b0: a4e2 aab8 34ab e937 5d46 32b9 4b0f ff39
000001c0: e646 9cb8 3293 80b6 3d4a 67b8 3e47 0639
000001d0: 589f 65b9 a29b 7fb8 c9b4 3139 e487 19b9
000001e0: ab51 27b7 8c5e b637 8da1 5439 50a0 aa38
000001f0: 7b4e 7639 0045 2738 96e9 6cb8 9596 b938
00000200: b76e 0e39 e299 54b8 f442 9438 589a f238
00000210: e582 c2b8 df6f 3cb9 c806 a036 b2e8 fd37
00000220: 31ba 2939 ed7d c0b8 0518 e4b8 b689 7738
00000230: f565 9d38 d083 fb38 e150 40b9 34a3 3ab8
00000240: bc36 0a38 28f8 cfb8 a897 8836 ca9a 6639
00000250: 682a 92b8 1996 abb8 ce35 69b6 d579 1b38
00000260: 081a 0137 b7bc 38b9 1066 b0b6 c44b 1cb8
00000270: 559d 8c38 aedd a838 cb79 8f38 ad42 4738
00000280: 65fc 2bb8 a15c 8537 f1ca d338 1b2e 9eb8
00000290: be89 12b9 844e 8e38 783e 5eb7 e01d 35b6
000002a0: 6709 49b8 04a3 8f37 40fb 3337 e002 1038
000002b0: 9bff 44b6 240b 9137 343c 1137 0d4a 0138
000002c0: e1f5 bbb8 d24f 05b9 3b5f f037 7648 ae39
000002d0: 1668 4fb8 27e4 b638 019c da38 a0d0 8cb6
000002e0: 92a1 76b7 5206 6038 1a15 c3b8 e235 cdb8
000002f0: 6b2b 4838 cc53 91b8 8647 01b8 b4b0 3737
00000300: 9741 b338 11dd e4b8 4a2c d6b8 7228 8c38
00000310: b8b8 42b8 65bc c5b8 afa9 88b8 7a99 ffb7
00000320: 492b 413e eac6 97b7 f0a7 0039 266c 8cb9
00000330: b4e7 413d 43c4 d039 e601 cbb8 b277 6dba
00000340: 66da 513a 0a1c a3b7 2251 093a 9195 8637
00000350: df8d f63d 4baa 8f38 e898 893a 358f d2b9
00000360: c8ba 8bb8 a618 07b8 6dfa 443e 3ea4 08ba
00000370: 0d2f b3b7 7569 263e a716 30b9 a848 fcb8
00000380: 8e60 91be 2fae cfb9 4a7c ceb8 d031 33b8
00000390: 2074 96b7 2ada b4b7 40b6 4dbe 7b92 5dbb
000003a0: 080d 9237 086e 03ba ca11 8838 f47d 8939
000003b0: d856 b837 7ddb 99b8 8e6c 84b8 0803 ba38
000003c0: c8ed ae37 7bbf 8cb8 78f6 58b8 5eb7 f837
000003d0: 4aec afb8 13b3 d0b8 1749 da38 ea6b c038
000003e0: b633 99b7 4d93 6db8 f47e 9e38 caab 15b9
000003f0: e791 db37 eac1 87b7 2751 8cb8 18c7 8fb8
-0.00013987494 0.00010753454 0.00023997866 -1.8394394e-05 -9.2899594e-05 -1.0329255e-05 -4.3173197e-05 -0.00027717094
7.3601454e-06 4.851981e-05 3.6355945e-05 -0.00013790911 -2.4626352e-06 2.159625e-05 1.5509106e-05 0.00028297625
-0.00029556744 9.807714e-06 -0.00012161607 -6.062709e-05 8.008642e-05 -2.1195461e-05 3.2625452e-05 -4.0611667e-06
0.00011589482 1.4558711e-05 0.00011012689 -0.0001482988 1.9906445e-05 -0.000105013794 9.636811e-05 4.77648e-05
0.00018713508 -1.0570776e-05 -1.5593541e-06 -0.000239589 6.088194e-07 0.00024528263 3.8028516e-05 0.0002294956
4.1010695e-05 -8.428775e-06 -0.00010755959 1.27277635e-05 0.0001078038 8.607807e-06 -9.422118e-05 -1.4690548e-05
5.1185118e-05 -0.0001073299 -0.00016352363 2.2303662e-05 8.633362e-05 -2.0876938e-05 -2.7815579e-05 5.4410193e-05
-6.0071947e-05 0.0001237379 -6.825126e-05 -2.9029057e-05 -4.497436e-05 -5.2058604e-06 9.410576e-05 -3.4019176e-05
-0.0002561091 -6.171901e-05 -0.00012388197 0.00010548344 -2.5166974e-05 -9.516628e-05 6.21926e-05 -0.0001552757
-0.00023241788 -0.00016819543 6.6869325e-05 6.2313375e-06 -0.0001895183 -2.155624e-05 -1.6973478e-05 8.075543e-05
7.916588e-05 -9.817895e-05 0.000112590285 -9.0457164e-05 2.3876833e-05 3.482055e-05 5.4332544e-05 -0.00016950416
-4.5591296e-05 -6.511708e-05 9.272706e-06 -0.0003277795 3.6546553e-05 0.00014178183 2.0886873e-05 0.00011859665
-0.00011529109 2.4724886e-05 -0.000109291206 0.0002978359 5.812878e-05 7.408825e-05 -3.4304612e-05 -2.4920853e-05
3.296313e-05 3.8244936e-05 1.8294002e-05 1.1029151e-05 -8.148447e-05 2.7855487e-05 -0.00017001615 0.00048648784
-7.4518655e-05 -3.831833e-06 -5.514383e-05 0.00012805776 -0.00021898502 -6.0941682e-05 0.00016947383 -0.0001464184
-9.9729905e-06 2.1740118e-05 0.00020278078 8.136092e-05 0.00023489624 3.9880164e-05 -5.648433e-05 8.8495355e-05
0.0001358342 -5.0688053e-05 7.069661e-05 0.00011568208 -9.275022e-05 -0.00017970752 4.769161e-06 3.0268307e-05
0.00016186458 -9.178729e-05 -0.00010876361 5.9017642e-05 7.505334e-05 0.00011993165 -0.00018340677 -4.449785e-05
3.295274e-05 -9.916752e-05 4.070771e-06 0.00021992173 -6.969721e-05 -8.181873e-05 -3.4751024e-06 3.7068345e-05
7.69506e-06 -0.00017617909 -5.2570904e-06 -3.726386e-05 6.7050256e-05 8.052155e-05 6.841457e-05 4.7507394e-05
-4.1004638e-05 1.589797e-05 0.00010099065 -7.542615e-05 -0.00013974958 6.785712e-05 -1.3246776e-05 -2.6988491e-06
-4.793089e-05 1.7122838e-05 1.072773e-05 3.4334953e-05 -2.9355058e-06 1.7290535e-05 8.656691e-06 3.0824962e-05
-8.9626534e-05 -0.00012713604 2.8654575e-05 0.00033241854 -4.9449583e-05 8.720933e-05 0.00010424108 -4.1966123e-06
-1.4700361e-05 5.3411648e-05 -9.302255e-05 -9.785198e-05 4.7724152e-05 -6.929747e-05 -3.0822608e-05 1.0948792e-05
8.547602e-05 -0.00010913064 -0.00010212565 6.683254e-05 -4.6425237e-05 -9.428783e-05 -6.5165914e-05 -3.0469837e-05
0.18864168 -1.809323e-05 0.00012269593 -0.00026783458 0.04734011 0.00039819078 -9.680148e-05 -0.00090586685
0.0008005261 -1.944417e-05 0.0005238225 1.6043692e-05 0.120387785 6.850491e-05 0.001049784 -0.0004016102
-6.662827e-05 -3.2209464e-05 0.19236155 -0.0005212462 -2.1360373e-05 0.16251166 -0.00016793107 -0.0001202983
-0.28393978 -0.00039611894 -9.845996e-05 -4.2723317e-05 -1.7935468e-05 -2.1559263e-05 -0.20089054 -0.0033809233
1.7410624e-05 -0.00050136494 6.488299e-05 0.0002622452 2.1974949e-05 -7.3364914e-05 -6.3144704e-05 8.869736e-05
2.0853142e-05 -6.711386e-05 -5.1727955e-05 2.964929e-05 -8.3886625e-05 -9.951568e-05 0.00010408664 9.175374e-05
-1.8263101e-05 -5.6642388e-05 7.557674e-05 -0.00014273744 2.6174775e-05 -1.6183552e-05 -6.690836e-05 -6.8558555e-05

model/dense_13/MatMul f4 [40, 40]
00000000: f6d1 edb8 7097 c7b8 149b 5cb8 0078 dbb3
00000010: f4a9 fcb8 7c7e 6639 6199 89b8 8a78 2538
00000020: 9f2e 83b7 8afe 26b9 94b1 8a39 aecc 2e38
00000030: 8c92 42b7 973a ef37 acf7 3cb7 66a3 6439
00000040: 86dc 28b9 9770 2db8 d79d 7cb9 bf2a c0b8
00000050: 105f 6bb8 6848 d338 bf9d 9038 4600 0db9
00000060: 189d d2b7 9663 fa38 de7c 0eb9 1cb0 ab37
00000070: aa4c 2cb7 628d 2e39 cfac b138 42e9 6439
00000080: e257 e138 bd79 053a 8a93 a837 2987 1139
00000090: 2cb5 2739 7901 0738 34e2 f2b8 984b 8938
000000a0: b473 bcb8 47f6 80b8 015e b4b8 ea76 2b38
000000b0: 5169 7839 6d58 c838 fafe d637 e671 2339
000000c0: 9bf1 64b8 68b2 c734 8f72 6cb9 031b 9038
000000d0: 904d a8b8 71b0 26b8 4fb3 a638 6f99 e036
000000e0: 204d 83b6 04c5 7f38 64e3 54b9 ff43 5339
000000f0: 0d2f 25b9 986f bf39 00a5 2db9 bcea ac37
00000100: 6120 94b8 2774 19b8 7d93 a439 42bc 8a38
00000110: f63e 27b9 9805 c0b8 b389 1039 50e1 df37
00000120: 95c0 9ab7 3e4e b1b8 2b22 3438 2a6e a138
00000130: 55ac 19b9 a275 ddb7 e086 a535 62a3 9638
00000140: 0cd8 1bba 18cc 2337 eff0 6ab9 e40a 86b8
00000150: 63df 1639 7f88 5839 1023 2738 b4f2 7539
00000160: fc12 5b38 b0f5 f4b8 60cb a9b7 e2a6 a139
00000170: e1e8 283a 4d09 5cb9 5e5b fb38 96f8 6d38
00000180: 3a93 17ba d821 85b8 b09b e538 464e b3b8
00000190: 71b7 1db9 4a1c 0a39 1392 0339 085f 6e39
000001a0: 1490 8039 3f3e 9c39 add4 8db8 ba99 ce38
000001b0: 54bd aa38 5bb6 84b9 c4f2 9339 b544 08b9
000001c0: f4dd e4b9 afe7 8b39 6838 e238 18a3 0d3a
000001d0: bcf6 34b9 4770 4539 c8ae bcb9 fa7d 8fb8
000001e0: 190a dcb8 7e61 c538 169a 72b8 d6a8 8a38
000001f0: d484 8938 8a46 b3b8 a591 d038 206e 6d36
00000200: 6ddd 0338 7b5f 6837 bee1 fab7 a4c3 4a37
00000210: a2b1 bd38 5010 b8b7 d346 fb38 70fe a5b6
00000220: 0fc6 9739 c064 77b6 6cbd c138 1a20 84b8
00000230: e86d 0138 9c6d 8237 be4e 0539 28bb fbb6
00000240: be40 7db8 a02a 40b8 3ce8 c0b9 ef7f 27b7
00000250: fa27 8e38 e842 5a38 ea34 a5b8 6d91 81b9
00000260: eb52 8e38 c224 1a39 2f11 6ab8 a323 5cb8
00000270: 60da d936 64ac 2eb8 ad5d 50b8 7e25 e536
00000280: 8f93 ffb8 20f4 ee36 302a 5637 1852 bcb8
00000290: bfeb f438 e0d3 ecb5 07a0 01b8 307d 16b8
000002a0: 31ec 8cb8 6563 70b7 24a6 13b9 b126 99b8
000002b0: d17d 59b8 a01b af37 00bd 1634 798e 4c38
000002c0: 4d56 30b9 d202 68b6 7058 6ab9 c6de e438
000002d0: 420a a3b7 044d b337 78a4 0ab9 73b0 a8b8
000002e0: e334 0d38 87b4 fc38 d888 cdb9 1c7d 60b7
000002f0: 0d55 8d38 7e91 19b8 07b7 f0b8 4eda 9db9
00000300: d8f0 5539 fb8a f939 40c8 a3b5 3a18 8838
00000310: 684b 2b39 e428 9cb8 ee3e e6b8 f16f 0638
00000320: 9b1d a3b8 8218 acb6 a273 ee37 ea35 7cb7
00000330: 7b0c d7b9 366d 913e 6ef9 4cb7 35c3 c33a
00000340: 097a 14be d73a ceb9 5091 cf38 9d04 9938
00000350: 1060 69b6 e9fd d43a 9744 69b8 aec3 d93a
00000360: 8644 5839 a556 ec37 a6a1 2839 6ed2 ed37
00000370: 165f f6b8 9b86 2cbe 9492 4537 05a9 0a3b
00000380: 7383 913a bba6 c93a 1a51 8938 c860 013b
00000390: 103c e0b7 c0ca 2fb6 488f 4fb8 c2ca 2db8
000003a0: 320b 54b8 1796 c6b7 a0d4 1f3a c43f 0a39
000003b0: 8ee1 a039 be4c 953a 2c66 eb3a ed06 09be
000003c0: 9dae 0539 c8de 4638 4059 1b36 7944 9337
000003d0: dc2e 7e38 13fb 82bb 21ea deb8 41c8 6d3a
000003e0: a6f1 ac3e b4ae 67bb a4fd edb7 6a86 c239
000003f0: a983 8938 c255 743d 7eac a338 2713 96ba
-0.00011340149 -9.517267e-05 -5.2596515e-05 -1.021981e-07 -0.000120479526 0.00021981628 -6.561238e-05 3.9451326e-05
-1.5638127e-05 -0.00015925817 0.00026453717 4.1675456e-05 -1.1597422e-05 2.8518303e-05 -1.1263339e-05 0.00021804645
-0.0001610388 -4.135127e-05 -0.00024091393 -9.1632355e-05 -5.61169e-05 0.00010074751 6.8958376e-05 -0.0001344691
-2.5107103e-05 0.00011939478 -0.00013588692 2.0466796e-05 -1.0269849e-05 0.00016646602 8.472206e-05 0.0002183067
0.000107452055 0.0005091688 2.0095864e-05 0.00013878629 0.00015993853 3.218788e-05 -0.00011581593 6.5467495e-05
-8.98609e-05 -6.149388e-05 -8.6005784e-05 4.0880324e-05 0.00023690356 9.553214e-05 2.562952e-05 0.00015587322
-5.458445e-05 3.7196446e-07 -0.0002254939 6.8714864e-05 -8.0253114e-05 -3.9741808e-05 7.948896e-05 6.6935822e-06
-3.9130828e-06 6.0980223e-05 -0.00020302605 0.00020147859 -0.00015753154 0.00036513503 -0.00016560033 2.0613305e-05
-7.063221e-05 -3.6586218e-05 0.00031390405 6.6154185e-05 -0.00015949816 -9.156315e-05 0.00013784207 2.668859e-05
-1.8447909e-05 -8.4545914e-05 4.2947166e-05 7.697598e-05 -0.00014655416 -2.640003e-05 1.2332712e-06 7.18299e-05
-0.0005944974 9.763076e-06 -0.00022405734 -6.3916465e-05 0.00014388333 0.00020650214 3.9848557e-05 0.00023455435
5.223135e-05 -0.000116805895 -2.0241074e-05 0.0003083265 0.0006443393 -0.000209843 0.00011985631 5.6736717e-05
-0.00057821313 -6.348238e-05 0.0001094857 -8.549965e-05 -0.00015041024 0.00013171244 0.0001254755 0.0002273285
0.0002452141 0.00029801016 -6.763018e-05 9.851479e-05 8.141497e-05 -0.00025312867 0.000282189 -0.00012995566
-0.00043652917 0.00026684764 0.00010787026 0.0005403026 -0.00017258053 0.0001882921 -0.00035988376 -6.842236e-05
-0.00010492298 9.411851e-05 -5.78408e-05 6.611801e-05 6.55741e-05 -8.548524e-05 9.945341e-05 3.5379853e-06
3.1439053e-05 1.3850508e-05 -2.9907442e-05 1.2085689e-05 9.045309e-05 -2.1942105e-05 0.00011981805 -4.9470036e-06
0.0002894853 -3.6864512e-06 9.23824e-05 -6.30023e-05 3.0858355e-05 1.5548248e-05 0.00012713202 -7.502171e-06
-6.0380196e-05 -4.5816065e-05 -0.00036794122 -9.9837625e-06 6.778534e-05 5.203756e-05 -7.877669e-05 -0.00024713148
6.786532e-05 0.00014700278 -5.580595e-05 -5.2485277e-05 6.492526e-06 -4.1645384e-05 -4.9678307e-05 6.8290965e-06
-0.000121868325 7.1213726e-06 1.27652165e-05 -8.97983e-05 0.00011678738 -1.7645034e-06 -3.0905034e-05 -3.5879377e-05
-6.719714e-05 -1.4328257e-05 -0.00014080905 -7.302815e-05 -5.1854007e-05 2.087449e-05 1.4038596e-07 4.8770078e-05
-0.00016816818 -3.4572336e-06 -0.00022348925 0.00010913382 -1.943589e-05 2.1374326e-05 -0.00013221975 -8.0437305e-05
3.3666274e-05 0.00012049922 -0.00039202604 -1.338057e-05 6.739246e-05 -3.6613543e-05 -0.00011478183 -0.00030108023
0.00020402984 0.0004759653 -1.2202727e-06 6.489498e-05 0.00016335922 -7.446276e-05 -0.00010978976 3.2052343e-05
-7.77796e-05 -5.1288525e-06 2.8425657e-05 -1.5032923e-05 -0.00041017294 0.28403634 -1.2217422e-05 0.0014935496
-0.14499678 -0.0003933522 9.897596e-05 7.296468e-05 -3.4775621e-06 0.0016249988 -5.561541e-05 0.0016614103
0.00020624892 2.817374e-05 0.00016081947 2.835059e-05 -0.00011747905 -0.16848223 1.1776243e-05 0.0021157872
0.0011101797 0.0015384773 6.5477754e-05 0.0019741524 -2.673085e-05 -2.6195048e-06 -4.9486087e-05 -4.1435247e-05
-5.0555165e-05 -2.367333e-05 0.0006097052 0.0001318446 0.0003068563 0.0011390669 0.0017959527 -0.13381548
0.00012748917 4.741436e-05 2.314875e-06 1.755565e-05 6.060196e-05 -0.0039972155 -0.00010629395 0.00090706727
0.33778113 -0.0035351934 -2.8370712e-05 0.0003710271 6.557193e-05 0.059652098 7.804575e-05 -0.00114498
